…
cy: 56.51 Validation Loss:1.2072079391002655 Calculating test accuracy CNN model cnn1 Test ACCuracy: 55.25 Test Loss: 1.2267251291751862 ------------------------------------------------------------------------------------------------------------------------------------------------------ ______________________________________________________________________________________________________________________________________________________ Best test accuracy achieved by model cnn0: 59.84 Print the model: print ( model ) Output CNN( (network): Sequential( (0): SkipLayer( (skiplayers): Sequential( (0): Conv2d(3, 16, kernel_size=(3, 3), stride=(1, 1), padding=(1, 1)) (1): BatchNorm2d(16, eps=1e-05, momentum=0.1, affine=True, track_running_stats=True) (2): ReLU() (3): Conv2d(16, 16, kernel_size=(3, 3), stride=(1, 1), padding=(1, 1)) (4): BatchNorm2d(16, eps=1e-05, momentum=0.1, affine=True, track_running_stats=True) ) (skip_connection): Conv2d(3, 16, kernel_size=(1, 1), stride=(1, 1)) (relu): ReLU() ) (1): SkipLayer( (skiplayers): Sequential( (0): Conv2d(16, 16, kernel_size=(3, 3), stride=(1, 1), padding=(1, 1)) (1): BatchNorm2d(16, eps=1e-05, momentum=0.1, affine=True, track_running_stats=True) (2): ReLU() (3): Conv2d(16, 128, kernel_size=(3, 3), stride=(1, 1), padding=(1, 1)) (4): BatchNorm2d(128, eps=1e-05, momentum=0.1, affine=True, track_running_stats=True) ) (skip_connection): Conv2d(16, 128, kernel_size=(1, 1), stride=(1, 1)) (relu): ReLU() ) ) (avgpool): AdaptiveAvgPool2d(output_size=(1, 1)) (classifier): Sequential( (0): Linear(in_features=128, out_features=32, bias=True) (1): ReLU() (2): Linear(in_features=32, out_features=10, bias=True) ) ) Get list of all classes. Example: print ( inst . get_classes ) Output ['airplane', 'automobile', 'bird', 'cat', 'deer', 'dog', 'frog', 'horse', 'ship', 'truck'] Print Model configuration: print ( model_config ) Output [('conv', 16, 16), ('conv', 16, 128)] Print history of all training data: print ( history ) Output { 'cnn0': { 'trainloss': [1.7207594
…
t_classes , inst . get_imageshape , path = './best models/' , filename = 'mnistmodel.pth' , config_file_path = './best models/' , config_filename = 'mnistcfg.json' ) 4. To check the summary of the model: model . summary ( input_shape = ( 3 , 32 , 32 )) # this method will print the keras like summary of the model 5. How to load saved model: myModel = CNN ( 3 , 10 ) myModel . load ( PATH = './best models/mnistmodel.pth' , config_path = \"./best models/mnistcfg.json\" , printmodel = True ) Output Network Architecture loaded! CNN( (network): Sequential( (0): SkipLayer( (skiplayers): Sequential( (0): Conv2d(3, 16, kernel_size=(3, 3), stride=(1, 1), padding=(1, 1)) (1): BatchNorm2d(16, eps=1e-05, momentum=0.1, affine=True, track_running_stats=True) (2): ReLU() (3): Conv2d(16, 16, kernel_size=(3, 3), stride=(1, 1), padding=(1, 1)) (4): BatchNorm2d(16, eps=1e-05, momentum=0.1, affine=True, track_running_stats=True) ) (skip_connection): Conv2d(3, 16, kernel_size=(1, 1), stride=(1, 1)) (relu): ReLU() ) (1): SkipLayer( (skiplayers): Sequential( (0): Conv2d(16, 16, kernel_size=(3, 3), stride=(1, 1), padding=(1, 1)) (1): BatchNorm2d(16, eps=1e-05, momentum=0.1, affine=True, track_running_stats=True) (2): ReLU() (3): Conv2d(16, 128, kernel_size=(3, 3), stride=(1, 1), padding=(1, 1)) (4): BatchNorm2d(128, eps=1e-05, momentum=0.1, affine=True, track_running_stats=True) ) (skip_connection): Conv2d(16, 128, kernel_size=(1, 1), stride=(1, 1)) (relu): ReLU() ) ) (avgpool): AdaptiveAvgPool2d(output_size=(1, 1)) (classifier): Sequential( (0): Linear(in_features=128, out_features=32, bias=True) (1): ReLU() (2): Linear(in_features=32, out_features=10, bias=True) ) ) Loading complete, your model is now ready for evaluation! 6. How to use Loaded model on new images: test_images = [ 'E:/output/cifar10/cifar10/test/bird/0012.png' , # bird 'E:/output/cifar10/cifar10/train/ship/0002.png' ] # ship myModel . predict ( paths = test_images ) Output ['bird', 'ship']","title":"Image Classification"},{"location":"tutorial/tu
…
55.25 Test Loss: 1.2267251291751862 ------------------------------------------------------------------------------------------------------------------------------------------------------ ______________________________________________________________________________________________________________________________________________________ Best test accuracy achieved by model cnn0: 59.84","title":"1. How to train a CNN model for image classification:"},{"location":"tutorial/tut/#print-the-model","text":"print ( model ) Output CNN( (network): Sequential( (0): SkipLayer( (skiplayers): Sequential( (0): Conv2d(3, 16, kernel_size=(3, 3), stride=(1, 1), padding=(1, 1)) (1): BatchNorm2d(16, eps=1e-05, momentum=0.1, affine=True, track_running_stats=True) (2): ReLU() (3): Conv2d(16, 16, kernel_size=(3, 3), stride=(1, 1), padding=(1, 1)) (4): BatchNorm2d(16, eps=1e-05, momentum=0.1, affine=True, track_running_stats=True) ) (skip_connection): Conv2d(3, 16, kernel_size=(1, 1), stride=(1, 1)) (relu): ReLU() ) (1): SkipLayer( (skiplayers): Sequential( (0): Conv2d(16, 16, kernel_size=(3, 3), stride=(1, 1), padding=(1, 1)) (1): BatchNorm2d(16, eps=1e-05, momentum=0.1, affine=True, track_running_stats=True) (2): ReLU() (3): Conv2d(16, 128, kernel_size=(3, 3), stride=(1, 1), padding=(1, 1)) (4): BatchNorm2d(128, eps=1e-05, momentum=0.1, affine=True, track_running_stats=True) ) (skip_connection): Conv2d(16, 128, kernel_size=(1, 1), stride=(1, 1)) (relu): ReLU() ) ) (avgpool): AdaptiveAvgPool2d(output_size=(1, 1)) (classifier): Sequential( (0): Linear(in_features=128, out_features=32, bias=True) (1): ReLU() (2): Linear(in_features=32, out_features=10, bias=True) ) )","title":"Print the model:"},{"location":"tutorial/tut/#get-list-of-all-classes-example","text":"print ( inst . get_classes ) Output ['airplane', 'automobile', 'bird', 'cat', 'deer', 'dog', 'frog', 'horse', 'ship', 'truck']","title":"Get list of all classes. Example:"},{"location":"tutorial/tut/#print-model-configuration","text":"print ( model_config
…
g.json' )","title":"3. How to save the model:"},{"location":"tutorial/tut/#4-to-check-the-summary-of-the-model","text":"model . summary ( input_shape = ( 3 , 32 , 32 )) # this method will print the keras like summary of the model","title":"4. To check the summary of the model:"},{"location":"tutorial/tut/#5-how-to-load-saved-model","text":"myModel = CNN ( 3 , 10 ) myModel . load ( PATH = './best models/mnistmodel.pth' , config_path = \"./best models/mnistcfg.json\" , printmodel = True ) Output Network Architecture loaded! CNN( (network): Sequential( (0): SkipLayer( (skiplayers): Sequential( (0): Conv2d(3, 16, kernel_size=(3, 3), stride=(1, 1), padding=(1, 1)) (1): BatchNorm2d(16, eps=1e-05, momentum=0.1, affine=True, track_running_stats=True) (2): ReLU() (3): Conv2d(16, 16, kernel_size=(3, 3), stride=(1, 1), padding=(1, 1)) (4): BatchNorm2d(16, eps=1e-05, momentum=0.1, affine=True, track_running_stats=True) ) (skip_connection): Conv2d(3, 16, kernel_size=(1, 1), stride=(1, 1)) (relu): ReLU() ) (1): SkipLayer( (skiplayers): Sequential( (0): Conv2d(16, 16, kernel_size=(3, 3), stride=(1, 1), padding=(1, 1)) (1): BatchNorm2d(16, eps=1e-05, momentum=0.1, affine=True, track_running_stats=True) (2): ReLU() (3): Conv2d(16, 128, kernel_size=(3, 3), stride=(1, 1), padding=(1, 1)) (4): BatchNorm2d(128, eps=1e-05, momentum=0.1, affine=True, track_running_stats=True) ) (skip_connection): Conv2d(16, 128, kernel_size=(1, 1), stride=(1, 1)) (relu): ReLU() ) ) (avgpool): AdaptiveAvgPool2d(output_size=(1, 1)) (classifier): Sequential( (0): Linear(in_features=128, out_features=32, bias=True) (1): ReLU() (2): Linear(in_features=32, out_features=10, bias=True) ) ) Loading complete, your model is now ready for evaluation!","title":"5. How to load saved model:"},{"location":"tutorial/tut/#6-how-to-use-loaded-model-on-new-images","text":"test_images = [ 'E:/output/cifar10/cifar10/test/bird/0012.png' , # bird 'E:/output/cifar10/cifar10/train/ship/0002.png' ] # ship myModel . predict ( paths = test_images ) Output 
…
